…
Training: 0it [00:00, ?it/s]Training:   0%|          | 0/2369 [00:00<?, ?it/s]Epoch 0:   0%|          | 0/2369 [00:00<?, ?it/s] /home3/hexin/anaconda3/envs/avse_new/lib/python3.8/site-packages/torch/utils/data/dataloader.py:487: UserWarning: This DataLoader will create 4 worker processes in total. Our suggested max number of worker in current system is 1, which is smaller than what this DataLoader is going to create. Please be aware that excessive worker creation might get DataLoader running slow or even freeze, lower the worker number to avoid potential slowness/freeze if necessary.
  warnings.warn(_create_warning_msg(
h shape: torch.Size([8, 256, 4, 4]), hs[-1] shape: torch.Size([8, 256, 4, 4]) num resblock 0
h shape: torch.Size([8, 256, 4, 4]) module name: ResnetBlockBigGANpp(
  (GroupNorm_0): GroupNorm(32, 512, eps=1e-06, affine=True)
  (Conv_0): Conv2d(512, 256, kernel_size=(3, 3), stride=(1, 1), padding=(1, 1))
  (Dense_0): Linear(in_features=512, out_features=256, bias=True)
  (GroupNorm_1): GroupNorm(32, 256, eps=1e-06, affine=True)
  (Dropout_0): Dropout(p=0.0, inplace=False)
  (Conv_1): Conv2d(256, 256, kernel_size=(3, 3), stride=(1, 1), padding=(1, 1))
  (Conv_2): Conv2d(512, 256, kernel_size=(1, 1), stride=(1, 1))
  (act): SiLU()
)
h shape: torch.Size([8, 256, 4, 4]), hs[-1] shape: torch.Size([8, 256, 4, 4]) num resblock 1
h shape: torch.Size([8, 256, 4, 4]) module name: ResnetBlockBigGANpp(
  (GroupNorm_0): GroupNorm(32, 512, eps=1e-06, affine=True)
  (Conv_0): Conv2d(512, 256, kernel_size=(3, 3), stride=(1, 1), padding=(1, 1))
  (Dense_0): Linear(in_features=512, out_features=256, bias=True)
  (GroupNorm_1): GroupNorm(32, 256, eps=1e-06, affine=True)
  (Dropout_0): Dropout(p=0.0, inplace=False)
  (Conv_1): Conv2d(256, 256, kernel_size=(3, 3), stride=(1, 1), padding=(1, 1))
  (Conv_2): Conv2d(512, 256, kernel_size=(1, 1), stride=(1, 1))
  (act): SiLU()
)
h shape: torch.Size([8, 256, 4, 4]), hs[-1] shape: torch.Size([8, 256, 4, 4]) num resblock 2
h shape: torch.Size([8, 256, 4, 4]) module name: ResnetBlockBigGANpp(
  (GroupNorm_0): GroupNorm(32, 512, eps=1e-06, affine=True)
  (Conv_0): Conv2d(512, 256, kernel_size=(3, 3), stride=(1, 1), padding=(1, 1))
  (Dense_0): Linear(in_features=512, out_features=256, bias=True)
  (GroupNorm_1): GroupNorm(32, 256, eps=1e-06, affine=True)
  (Dropout_0): Dropout(p=0.0, inplace=False)
  (Conv_1): Conv2d(256, 256, kernel_size=(3, 3), stride=(1, 1), padding=(1, 1))
  (Conv_2): Conv2d(512, 256, kernel_size=(1, 1), stride=(1, 1))
  (act): SiLU()
)
h shape: torch.Size([8, 256, 8, 8]), hs[-1] shape: torch.Size([8, 256, 8, 9]) num resblock 0
Traceback (most recent call last):
  File "train.py", line 96, in <module>
    trainer.fit(model)
  File "/home3/hexin/anaconda3/envs/avse_new/lib/python3.8/site-packages/pytorch_lightning/trainer/trainer.py", line 770, in fit
    self._call_and_handle_interrupt(
…
